model/keypoint_classifier/keypoint_classifier.tflite (tflite, 6800 bytes, 6 tensors)

arith.constant f4 [10, 10]
0	0x3ee4502d	0.4459242
1	0x3f19e6cc	0.60117793
2	0xbf5ec57a	-0.87020075
3	0xbdf7da81	-0.12102223
4	0x3f087ff0	0.5332022
5	0x3e8b4806	0.27203387
6	0xbe64cc05	-0.22343452
7	0xbf49004f	-0.78516096
8	0x3f203864	0.62586045
9	0xbf1d6bdf	-0.61492723
10	0x3f075528	0.52864313
11	0xbf3f3589	-0.74691063
12	0x3e23cb25	0.15995462
13	0x3f74dfa2	0.95653737
14	0xbe4a1e7a	-0.19738188
15	0xbea4a4b8	-0.3215692
16	0x3dc33cab	0.09533056
17	0x3c312445	0.01081187
18	0x3ee1e912	0.4412313
19	0x3ec8fe77	0.3925664
20	0xbe03768c	-0.12838191
21	0xbf7f6974	-0.99770284
22	0xbf196c12	-0.5993053
23	0xbc5e7400	-0.013577461
24	0x3f60b93d	0.8778265
25	0x3f17fb22	0.59367573
26	0xbdded14a	-0.108797625
27	0x3f79e29d	0.9761141
28	0x3b8dece1	0.0043312167
29	0xbeee995c	-0.4660138
30	0xbfc1d80e	-1.514406
31	0x3f87e6e7	1.0617341
32	0xbeb028bf	-0.34406087
33	0x3e8e705a	0.27820092
34	0xbeced594	-0.40397322
35	0x3f26009f	0.648447
36	0xbf521be5	-0.82073814
37	0x3e9d0136	0.30664986
38	0xbf24d8be	-0.6439322
39	0xbfbc324a	-1.4702847
40	0xbf58bd0e	-0.84663475
41	0x3e4624bd	0.19349952
42	0xbebfb16e	-0.37440056
43	0x3f20be3e	0.62790287
44	0xbe4f831c	-0.20264858
45	0x3ee68686	0.45024508
46	0x3e4bf66d	0.19918223
47	0xbee1d2a7	-0.44106027
48	0xbf8561ac	-1.0420432
49	0x3eaef618	0.3417213
50	0xbf13ed75	-0.57784206
51	0xbe51bf23	-0.20483069
52	0x3f4a2a24	0.7897055
53	0xbec2599e	-0.37958997
54	0xbf08d4a7	-0.5344948
55	0xbf9fcb93	-1.2484001
56	0x3f1494c8	0.5803952
57	0xbe7898da	-0.24277058
58	0xbc72248b	-0.01477922
59	0xbe34ef89	-0.176695
60	0xbda761ae	-0.08172928
61	0x3db41951	0.08793891
62	0x3f96f54f	1.1793612
63	0xbf77642f	-0.96637243
64	0xbe2e0e1d	-0.16997571
65	0xbf292079	-0.66065174
66	0xc010e53b	-2.263991
67	0xbf621dc6	-0.8832668
68	0x3ca17e58	0.019713566
69	0xbe96ff97	-0.29491875
70	0xbef7c0b5	-0.4838921
71	0x3e6a0c46	0.22856244
72	0xbea07d3a	-0.3134554
73	0x3c95d520	0.018290102
74	0xbe836e0e	-0.25669903
75	0x3f8f7e73	1.1210464
76	0xbfe9ff11	-1.8280965
77	0xbf52d725	-0.82359535
78	0x3f6f167f	0.933937
79	0x3f07aad6	0.5299505
80	0x3eecaa90	0.4622388
81	0xbf960050	-1.1718845
82	0xbf0f882a	-0.56067145
83	0xbf39d026	-0.72583234
84	0x3f9cfa7b	1.226394
85	0xbe9e9199	-0.30970457
86	0x3f6f1ab2	0.9340011
87	0xbf89a8a1	-1.0754586
88	0xbeeea10a	-0.46607238
89	0x3f3bf189	0.7341543
90	0xbf84976d	-1.0358711
91	0x3e7eba6d	0.24875803
92	0x3f02b167	0.51051944
93	0xbf66b839	-0.9012485
94	0xbe2b4b23	-0.16727881
95	0xbf198679	-0.59970814
96	0xbfe51ae4	-1.7898831
97	0xbf67da7c	-0.90567756
98	0x3f10fab9	0.5663257
99	0x3f16b0e2	0.5886365

arith.constant1 f4 [10, 20]
0	0xbeb10583	-0.34574518
1	0x3fb79ed3	1.4345344
2	0x3f05a4d2	0.5220462
3	0x3eec133c	0.46108425
4	0x3f4fc44e	0.8115891
5	0x3f3c4398	0.7354064
6	0x3c7e3cca	0.015517423
7	0xbdee3506	-0.11631207
8	0x3f3d87bf	0.7403526
9	0x3f5eef31	0.8708373
10	0xbee2cdc9	-0.44297627
11	0x3e38a89f	0.18033074
12	0x3f5ae439	0.8550449
13	0x3f140777	0.5782389
14	0x3dc8d9bb	0.09807154
15	0xbd99e22a	-0.075138405
16	0x3e591575	0.21199591
17	0x3e406f75	0.18792517
18	0x3f92ffdf	1.1484336
19	0x3f09fd43	0.5390207
20	0x3f990c88	1.1956949
21	0x3e714a48	0.23563492
22	0xbd47037d	-0.04858731
23	0xbe3162ca	-0.17322841
24	0x3f403b00	0.75090027
25	0x3f276b66	0.6539825
26	0x3e9ea064	0.30981743
27	0xbecd3b89	-0.40084484
28	0x3e8368c1	0.25665858
29	0xbd7ef397	-0.062244024
30	0xbecb93e2	-0.39761263
31	0x3f9ef7be	1.2419355
32	0x3f237909	0.6385656
33	0xbe8f4cc5	-0.27988258
34	0x3f32a81c	0.69787765
35	0xbe2b67dd	-0.1673884
36	0x3f3fa7ae	0.74865234
37	0x3f8bca78	1.0921164
38	0xbe6a751d	-0.22896238
39	0x3ed23936	0.41059273
40	0xbf6b5602	-0.9192811
41	0xbfe84393	-1.8145622
42	0x3ef7dc4e	0.48410267
43	0xbf982ee7	-1.1889313
44	0xbe5ca06d	-0.21545573
45	0xbe83cd0a	-0.2574237
46	0x3f7fa5ea	0.9986254
47	0x3f2f59f1	0.68496615
48	0x3d9a5602	0.07535936
49	0xbfe62073	-1.7978653
50	0x3cfee532	0.031115148
51	0x3eaf8a49	0.3428519
52	0x3e8216d4	0.2540804
53	0x3c09e8d2	0.008417325
54	0xbf47e035	-0.7807649
55	0xbd21c9d1	-0.039499108
56	0xbf754e56	-0.95822656
57	0x3ec55030	0.3853774
58	0xbf810cd6	-1.0082042
59	0x3dbcb0d5	0.092134155
60	0xbed06a35	-0.4070603
61	0xbdb4bf79	-0.08825583
62	0x3f611898	0.8792815
63	0x3f05c19d	0.52248555
64	0x3f178e5e	0.5920161
65	0xbd1dd7e3	-0.038535964
66	0x3e672cc8	0.22575676
67	0x3f9e7b68	1.2381411
68	0x3e8bea24	0.27327073
69	0x3dd05d6e	0.1017407
70	0x3f4a9613	0.79135245
71	0x3e343a8e	0.17600462
72	0xbea812ff	-0.32826993
73	0xbd989317	-0.0744993
74	0x3f8634bb	1.0484842
75	0x3f7ce717	0.98790115
76	0x3e932d03	0.2874528
77	0x3e5e63fd	0.2171783
78	0x3ea800e7	0.32813188
79	0x3f3ad0bf	0.7297477
80	0xbe7ee644	-0.24892527
81	0xbea0600e	-0.31323284
82	0xbed51c0a	-0.41622955
83	0x3eac6f31	0.33678582
84	0x3e5ca7d9	0.21548404
85	0x3e7ae554	0.24501544
86	0xbf380b55	-0.7189229
87	0xbf8420d8	-1.0322523
88	0xbdd4fcc4	-0.10399774
89	0x3d933e4d	0.07189617
90	0xbf9d3181	-1.2280732
91	0xbe512650	-0.20424771
92	0x3f2cd5c9	0.6751371
93	0x3f37aa41	0.7174416
94	0x3eb00f86	0.34386843
95	0x3e801661	0.25017074
96	0x3e4dc30a	0.20093933
97	0xbe5ecd8f	-0.21758102
98	0x3f15efca	0.58569014
99	0x3efac472	0.48978
100	0xbfc3cb77	-1.5296468
101	0xbd93a9b1	-0.072101004
102	0x3dbe1957	0.09282177
103	0x3ee0508d	0.43811455
104	0x3f0e9470	0.5569525
105	0xbeb175d2	-0.34660202
106	0x3e5672ef	0.20942281
107	0x3e3d3204	0.1847611
108	0xbef8487f	-0.4849281
109	0x3ea84536	0.32865304
110	0x3eb51a33	0.3537155
111	0xbf969a24	-1.176579
112	0xbf385d0b	-0.7201697
113	0x3e91b055	0.28454843
114	0xbf12bf3b	-0.57323045
115	0x3e42bef2	0.19018152
116	0xbf02563b	-0.5091283
117	0xbfe7f69e	-1.8122137
118	0x3ee775d2	0.45207077
119	0x3f474574	0.7784035
120	0x3e64c035	0.22338946
121	0x3f69ba10	0.91299534
122	0x3dbaf86f	0.09129416
123	0xbed934cf	-0.42423102
124	0xbef1d516	-0.47232884
125	0xbf28f541	-0.6599923
126	0xbe8a45f1	-0.27006486
127	0xbdd2e4ba	-0.102975324
128	0xbf9662c5	-1.1748892
129	0x3ef8737c	0.48525608
130	0xbd32b5af	-0.0436303
131	0xbe1bc6e0	-0.15212584
132	0xbf0f1db1	-0.5590468
133	0xbe33eb3a	-0.175702
134	0x3f707fcb	0.93944997
135	0xbf1e749f	-0.618967
136	0x3eafb2d8	0.34316134
137	0xbde681aa	-0.112552
138	0x3eb86d7c	0.3602103
139	0x3f14e772	0.5816566
140	0xc00089e2	-2.0084157
141	0x3e874de5	0.26426616
142	0xbc6e7449	-0.014554092
143	0x3e1da2b5	0.15394099
144	0xbee2d7c7	-0.4430525
145	0xbf0dafc9	-0.5534635
146	0x3e99700b	0.29968295
147	0x3ed4c34f	0.4155526
148	0xbe02d676	-0.12777123
149	0x3eca45ad	0.39506283
150	0x3e5294ea	0.20564619
151	0xbf0ef58f	-0.5584344
152	0xbf11689e	-0.5680026
153	0xbe54accf	-0.20769046
154	0xbf05e296	-0.5229887
155	0x3e97f226	0.29676932
156	0xbf4b60c5	-0.79444534
157	0xbed0cdd4	-0.40782034
158	0x3e102e40	0.14080143
159	0x3e71dd32	0.23619536
160	0xbda7c923	-0.08192661
161	0xbd9eb65f	-0.07749628
162	0x3ca14136	0.019684415
163	0x3f788e98	0.9709258
164	0x3fb551df	1.416561
165	0x3f143318	0.5789046
166	0x3fa22a5b	1.2669176
167	0x3f2d56cf	0.67710584
168	0x3f679965	0.90468436
169	0x3f3e36b5	0.74302226
170	0x3e8af6c0	0.2714138
171	0x3e360fa3	0.17779402
172	0x3c43488c	0.011919152
173	0x3f674eeb	0.90354794
174	0xbc801700	-0.015635967
175	0x3e8d95ee	0.2765345
176	0xbf4cbf7e	-0.79979694
177	0x3e30c611	0.17263056
178	0x3e42b79b	0.19015352
179	0x3dbb8c75	0.091576494
180	0x3f2d5f4b	0.6772353
181	0x3ec04f6a	0.37560588
182	0x3fc97cc7	1.5741204
183	0xbdf2d1e2	-0.11856438
184	0x3e26f788	0.16305363
185	0xbdc15120	-0.094393015
186	0xbe8ee654	-0.279101
187	0xbf1ee146	-0.6206249
188	0xbe0be18a	-0.13660255
189	0xbe7e41cd	-0.24829789
190	0x3f38726d	0.720496
191	0x3e8edb90	0.27901888
192	0x3f4dc280	0.8037491
193	0x3eeb8f8e	0.4600796
194	0xbe966561	-0.2937422
195	0xbf980c60	-1.1878777
196	0x3d148c26	0.03626647
197	0x3e509130	0.20367885
198	0xbe703bd0	-0.23460317
199	0xbd7ee6c7	-0.062231805

arith.constant2 f4 [10]
0	0xbe6a9bd2	-0.22911003
1	0xbec9e4cf	-0.3943238
2	0x3f1eaefe	0.61985767
3	0x3ea7e9eb	0.32795653
4	0xbd1605a4	-0.036626473
5	0x3f58069b	0.8438508
6	0xbdd43edb	-0.10363551
7	0xbf555124	-0.83326936
8	0xbe6ee170	-0.23328185
9	0xbbd907b3	-0.0066232323

sequential_1/dense_1_2/Add/ReadVariableOp f4 [10]
0	0x3e9954bf	0.2994747
1	0x3f1f4e22	0.62228596
2	0x3f825d8b	1.0184797
3	0x3e19c7fd	0.15017696
4	0x3f200ce1	0.6251965
5	0x3f089d74	0.53365254
6	0x3ea994bb	0.33121285
7	0x3fa41539	1.2818977
8	0x3e464e87	0.19365893
9	0x3e8e90f3	0.27844962

sequential_1/dense_1/Add/ReadVariableOp f4 [20]
0	0xbee391a7	-0.4444706
1	0xbf3b9b8c	-0.7328422
2	0xbf645a44	-0.89200234
3	0x3dd91607	0.105999045
4	0xbf214feb	-0.6301257
5	0xbea9d605	-0.33171096
6	0xbf62b3cc	-0.885556
7	0xbf9a0dde	-1.2035482
8	0xbf5e3df6	-0.86813295
9	0x3e1f876a	0.15579
10	0xbf90e8f1	-1.1321088
11	0xbf5ac09e	-0.8545016
12	0xbf21235c	-0.6294458
13	0xbecbaa4f	-0.39778373
14	0xbeceb826	-0.4037487
15	0xbe7fbc8a	-0.24974266
16	0xbec30a0e	-0.3809361
17	0xbf203865	-0.6258605
18	0x3f463297	0.77420944
19	0xbe57a80b	-0.21060197

sequential_1/dense_1/MatMul f4 [20, 42]
0	0x3e9d0266	0.30665892
1	0xbcce64d0	-0.025194556
2	0xbdadce8d	-0.08486662
3	0xbeab923a	-0.3351
4	0xbb758354	-0.003746231
5	0xbdc35a0f	-0.09538662
6	0xbd81be3c	-0.063351125
7	0x3e33692c	0.17520589
8	0xbd0a824d	-0.03381567
9	0x3e6c2bdc	0.23063606
10	0x3d8764b3	0.06611004
11	0x3caf113c	0.021370523
12	0x3cb307de	0.021854337
13	0x3d824025	0.06359891
14	0x3c7f8bb0	0.015597269
15	0xbcdf5a5b	-0.027264765
16	0xbd10ad3b	-0.035321455
17	0xbcbea4f1	-0.02327201
18	0x3dd9921b	0.106235705
19	0x3dc437c4	0.09580949
20	0x3ce16653	0.027514612
21	0x3db38ed0	0.08767474
22	0x3c9f4f8a	0.019447107
23	0x3d6954db	0.05696569
24	0x3d2c396e	0.042046957
25	0x3d72c914	0.059273794
26	0x3df464b0	0.11933267
27	0x3e208e49	0.15679277
28	0x3bc650e4	0.0060521234
29	0x3df1b8b4	0.118028075
30	0x3b8f1df9	0.0043675867
31	0x3dc6689d	0.09687922
32	0x3e019a35	0.12656482
33	0x3dabb9c0	0.083850384
34	0x3d08fe54	0.03344567
35	0x3e50d794	0.20394737
36	0xbde180d2	-0.11010899
37	0x3e2ed4ec	0.17073411
38	0xbe411589	-0.18855871
39	0x3db47386	0.08811097
40	0xbe85da05	-0.26142898
41	0xc003a577	-2.0569742
42	0xbe8a78c7	-0.2704527
43	0xbe2f4a5c	-0.1711821
44	0x3ec7e564	0.390422
45	0x4028592b	2.6304424
46	0x3cc32c76	0.023824912
47	0x3faf294c	1.3684478
48	0xbe013001	-0.12615968
49	0x3f145043	0.5793497
50	0xbdb9105a	-0.09036322
51	0x3ebcf592	0.36906105
52	0xbdb7ba25	-0.08971051
53	0x3f006614	0.5015576
54	0x3cecfdae	0.028929558
55	0x3dc15030	0.09439123
56	0x3db90af4	0.09035292
57	0xbe2873b9	-0.16450395
58	0x3e07d904	0.13266379
59	0xbed70ac0	-0.4200039
60	0xbddc477c	-0.10755822
61	0x3e07f77a	0.13277999
62	0xbd974ed8	-0.07388085
63	0xbcd04641	-0.025424125
64	0x3cba4c63	0.022741502
65	0xbd956cc6	-0.072961375
66	0x3d4c1ac0	0.0498302
67	0xbd375d3a	-0.044766642
68	0xbe193e06	-0.14965066
69	0xbdcf52d7	-0.10123222
70	0xbe0dea84	-0.13858992
71	0xbdf6c122	-0.12048556
72	0x3c9aa398	0.018876836
73	0xbd829286	-0.063756034
74	0x3cae7f8b	0.021301052
75	0xbd20adfe	-0.039228432
76	0xbe45d50c	-0.19319552
77	0xbeb2df0b	-0.34935793
78	0xbe06d366	-0.1316658
79	0xbe61b8ac	-0.22043103
80	0x3dccca34	0.09999505
81	0xbcfc6d3d	-0.030813808
82	0x3df3773f	0.11887979
83	0xbc9a6428	-0.018846586
84	0x3e998a80	0.2998848
85	0x3df0aa9c	0.11751291
86	0x3f438c0b	0.76385564
87	0xbee5d46d	-0.4488863
88	0x3ef29a7d	0.4738349
89	0xbeae100d	-0.3399662
90	0x3eae7c5b	0.3407925
91	0xbee9d1f3	-0.4566799
92	0x3e95cb19	0.29256514
93	0xbea85e1a	-0.32884294
94	0x3e5fdaea	0.21860853
95	0x3e532ad4	0.20621806
96	0x3da0d800	0.07853699
97	0x3d879680	0.066205025
98	0xbe49aba4	-0.19694382
99	0x3e5e6c35	0.21720965
100	0xbea43e93	-0.3207899
101	0x3e99db6b	0.30050215
102	0x3e9ec1b5	0.31007162
103	0x3d830f72	0.0639943
104	0x3de78e7a	0.11306472
105	0xbd011a16	-0.031519018
106	0xbda13d9d	-0.0787308
107	0x3e070346	0.13184842
108	0xbe1d7769	-0.15377583
109	0x3e00fc07	0.12596141
110	0x3e5db8d3	0.21652536
111	0xbdd00764	-0.1015766
112	0x3e4609c4	0.19339663
113	0xbdfdba76	-0.1238908
114	0xbc84e2e6	-0.016221475
115	0x3d4cb810	0.049980223
116	0xbe14e005	-0.14538582
117	0x3d49631d	0.049166787
118	0x3ea8d7f5	0.32977262
119	0xbea5ff58	-0.32421374
120	0x3ed26198	0.41090083
121	0xbed235b2	-0.4105659
122	0x3e29d947	0.16586791
123	0xbd6adb3d	-0.05733799
124	0x3cff600e	0.031173732
125	0xbcc2cc33	-0.02377901
126	0x3e5164ec	0.20448655
127	0xbe70830e	-0.23487493
128	0x400cc989	2.1998007
129	0xbf83737a	-1.0269616
130	0x3f8e89af	1.1135768
131	0xbef5e3c0	-0.48025322
132	0x3f5b4f6c	0.85668063
133	0xbef948d3	-0.48688373
134	0x3ed6188d	0.41815606
135	0xbed5e7c0	-0.41778374
136	0x3f1fe0a3	0.62452143
137	0xbe61e49b	-0.22059862
138	0x3e671ce4	0.22569615
139	0xbe160e58	-0.14653909
140	0xbd6f5fbd	-0.058440913
141	0x3c9dcc1f	0.019262372
142	0xbe324433	-0.17408828
143	0x3cdceea7	0.026969267
144	0x3ebc186c	0.36737382
145	0xbd8e9976	-0.06962864
146	0x3d717f03	0.05895902
147	0xbd38155f	-0.044942256
148	0xbcec80a7	-0.02886994
149	0x3d6ceb5e	0.05784165
150	0xbd76cd1b	-0.060254198
151	0x3e11d9dd	0.14243264
152	0xbdbd2a89	-0.092366286
153	0x3e2a577a	0.16634932
154	0xbe65bd5b	-0.22435515
155	0x3d7bdccf	0.061489876
156	0xbde5995a	-0.1121089
157	0x3e09e481	0.13466074
158	0xbce71368	-0.028207496
159	0x3e36cddf	0.17851971
160	0xbebba4ae	-0.36649078
161	0x3eafbbf8	0.34323096
162	0xbedad07c	-0.42737186
163	0x3e9d7930	0.3075652
164	0xbf06b68d	-0.526223
165	0x3e6b3713	0.22970228
166	0xbf040020	-0.5156269
167	0x3e853104	0.26013958
168	0xbd9a23c2	-0.075263515
169	0xbe02ea00	-0.12784576
170	0xbb408fd4	-0.0029382603
171	0x3d32e005	0.043670673
172	0x3dcca981	0.09993268
173	0xbe868f3b	-0.2628115
174	0x3e025bbe	0.1273031
175	0xbf114127	-0.5674004
176	0x3e5e6161	0.21716835
177	0xbf602209	-0.87551934
178	0xbb9b7750	-0.004744448
179	0xbcc45be0	-0.02396959
180	0xbd6ef212	-0.058336325
181	0x3ceaccef	0.028662173
182	0xbd8e6082	-0.06952001
183	0x3d492faf	0.04911774
184	0xbd2755e1	-0.040853385
185	0x3d0044ac	0.03131549
186	0xbc4334fb	-0.011914487
187	0xbcc412f6	-0.023934823
188	0xbd04ce73	-0.032423448
189	0xbdc70a5f	-0.09718775
190	0xbd76ee38	-0.060285777
191	0x3c326680	0.010888696
192	0xbda882ac	-0.08228049
193	0x3eb23227	0.34803888
194	0xbbc410a2	-0.005983428
195	0xbe2e679b	-0.1703171
196	0x3d8217a2	0.06352164
197	0xbda50e0d	-0.080593206
198	0xbe09775b	-0.13424437
199	0x3ed08c3d	0.40731993
200	0xbe0e7519	-0.13911857
201	0x3f75cb94	0.9601376
202	0x3dd3341a	0.10312672
203	0xbe07619f	-0.13220833
204	0x3bb1b6a8	0.0054233856
205	0x3d6f424f	0.058412846
206	0xbdc41608	-0.095745146
207	0x3eedc53c	0.4643954
208	0xbe76a768	-0.24087298
209	0x3f8e99a6	1.114064
210	0xbe55a13a	-0.20862284
211	0x3deb12fc	0.1147823
212	0xbc7b6e74	-0.015346158
213	0x3e84231e	0.25808042
214	0xbe323927	-0.17404614
215	0xba279b31	-0.000639367
216	0xbeccc3d6	-0.3999316
217	0xbe48489c	-0.19558948
218	0xbef94233	-0.48683318
219	0xbdef42d1	-0.11682666
220	0x3cfffd6d	0.031248773
221	0x3e505694	0.20345527
222	0xbaf65691	-0.0018794109
223	0x3dd46286	0.10370354
224	0xba568bd4	-0.0008184288
225	0x3bc640f1	0.006050222
226	0x3bb656bf	0.00556454
227	0xbd8bb76f	-0.068220966
228	0x3a9e46ee	0.0012075582
229	0x3e65fa3d	0.2245874
230	0xbddc929d	-0.10770152
231	0x3d6b51eb	0.05745117
232	0x3e3c94b7	0.18416105
233	0x3b47c08f	0.0030479764
234	0x3ef7d3f7	0.48403904
235	0xbe9950c0	-0.2994442
236	0xbd89988b	-0.067185484
237	0x3e83246c	0.25613725
238	0xbd25c469	-0.040470514
239	0xbcb5b9e3	-0.022183364
240	0x3efc4793	0.49273357
241	0x3c6eb1ff	0.014568805
242	0x3f722d16	0.94600046
243	0xbed50fbd	-0.4161357
244	0xbd9e8ba0	-0.07741475
245	0x3ea4c45a	0.32181054
246	0xbdf96f80	-0.1217947
247	0x3e04d57e	0.12972066
248	0x3c5516ff	0.013005971
249	0x3df230f7	0.118257456
250	0x3e2c1a64	0.16806942
251	0x3e468095	0.19384988
252	0xbe0cf276	-0.13764367
253	0xbe838222	-0.2568522
254	0xbf24bb2c	-0.643481
255	0xbf20c6ba	-0.6280323
